…
    "sum_losses": true,
    "task": "LoS",
    "trans_dropout_rate": 0
}
2024-04-14 16:35:20,184 - INFO - Experiment set up.
2024-04-14 16:35:20,211 - INFO - Transformer(
  (relu): ReLU()
  (sigmoid): Sigmoid()
  (hardtanh): Hardtanh(min_val=0.020833333333333332, max_val=100)
  (trans_dropout): Dropout(p=0, inplace=False)
  (main_dropout): Dropout(p=0.45, inplace=False)
  (msle_loss): MSLELoss(
    (squared_error): MSELoss()
  )
  (mse_loss): MSELoss(
    (squared_error): MSELoss()
  )
  (bce_loss): BCELoss()
  (empty_module): EmptyModule()
  (transformer): TransformerEncoder(
    (input_embedding): Conv1d(204, 16, kernel_size=(1,), stride=(1,))
    (pos_encoder): PositionalEncoding()
    (trans_encoder_layer): TransformerEncoderLayer(
      (self_attn): MultiheadAttention(
        (out_proj): NonDynamicallyQuantizableLinear(in_features=16, out_features=16, bias=True)
      )
      (linear1): Linear(in_features=16, out_features=256, bias=True)
      (dropout): Dropout(p=0, inplace=False)
      (linear2): Linear(in_features=256, out_features=16, bias=True)
      (norm1): LayerNorm((16,), eps=1e-05, elementwise_affine=True)
      (norm2): LayerNorm((16,), eps=1e-05, elementwise_affine=True)
      (dropout1): Dropout(p=0, inplace=False)
      (dropout2): Dropout(p=0, inplace=False)
    )
    (transformer_encoder): TransformerEncoder(
      (layers): ModuleList(
        (0): TransformerEncoderLayer(
          (self_attn): MultiheadAttention(
            (out_proj): NonDynamicallyQuantizableLinear(in_features=16, out_features=16, bias=True)
          )
          (linear1): Linear(in_features=16, out_features=256, bias=True)
          (dropout): Dropout(p=0, inplace=False)
          (linear2): Linear(in_features=256, out_features=16, bias=True)
          (norm1): LayerNorm((16,), eps=1e-05, elementwise_affine=True)
          (norm2): LayerNorm((16,), eps=1e-05, elementwise_affine=True)
          (dropout1): Dropout(p=0, inplace=False)
          (dropout2): Dropout(p=0, inplace=False)
        )
        (1): TransformerEncoderLayer(
          (self_attn): MultiheadAttention(
            (out_proj): NonDynamicallyQuantizableLinear(in_features=16, out_features=16, bias=True)
          )
          (linear1): Linear(in_features=16, out_features=256, bias=True)
          (dropout): Dropout(p=0, inplace=False)
          (linear2): Linear(in_features=256, out_features=16, bias=True)
          (norm1): LayerNorm((16,), eps=1e-05, elementwise_affine=True)
          (norm2): LayerNorm((16,), eps=1e-05, elementwise_affine=True)
          (dropout1): Dropout(p=0, inplace=False)
          (dropout2): Dropout(p=0, inplace=False)
        )
        (2): TransformerEncoderLayer(
          (self_attn): MultiheadAttention(
            (out_proj): NonDynamicallyQuantizableLinear(in_features=16, out_features=16, bias=True)
          )
          (linear1): Linear(in_features=16, out_features=256, bias=True)
          (dropout): Dropout(p=0, inplace=False)
          (linear2): Linear(in_features=256, out_features=16, bias=True)
          (norm1): LayerNorm((16,), eps=1e-05, elementwise_affine=True)
          (norm2): LayerNorm((16,), eps=1e-05, elementwise_affine=True)
          (dropout1): Dropout(p=0, inplace=False)
          (dropout2): Dropout(p=0, inplace=False)
        )
        (3): TransformerEncoderLayer(
          (self_attn): MultiheadAttention(
            (out_proj): NonDynamicallyQuantizableLinear(in_features=16, out_features=16, bias=True)
          )
          (linear1): Linear(in_features=16, out_features=256, bias=True)
          (dropout): Dropout(p=0, inplace=False)
          (linear2): Linear(in_features=256, out_features=16, bias=True)
          (norm1): LayerNorm((16,), eps=1e-05, elementwise_affine=True)
          (norm2): LayerNorm((16,), eps=1e-05, elementwise_affine=True)
          (dropout1): Dropout(p=0, inplace=False)
          (dropout2): Dropout(p=0, inplace=False)
        )
        (4): TransformerEncoderLayer(
          (self_attn): MultiheadAttention(
            (out_proj): NonDynamicallyQuantizableLinear(in_features=16, out_features=16, bias=True)
          )
          (linear1): Linear(in_features=16, out_features=256, bias=True)
          (dropout): Dropout(p=0, inplace=False)
          (linear2): Linear(in_features=256, out_features=16, bias=True)
          (norm1): LayerNorm((16,), eps=1e-05, elementwise_affine=True)
          (norm2): LayerNorm((16,), eps=1e-05, elementwise_affine=True)
          (dropout1): Dropout(p=0, inplace=False)
          (dropout2): Dropout(p=0, inplace=False)
        )
        (5): TransformerEncoderLayer(
          (self_attn): MultiheadAttention(
            (out_proj): NonDynamicallyQuantizableLinear(in_features=16, out_features=16, bias=True)
          )
          (linear1): Linear(in_features=16, out_features=256, bias=True)
          (dropout): Dropout(p=0, inplace=False)
          (linear2): Linear(in_features=256, out_features=16, bias=True)
          (norm1): LayerNorm((16,), eps=1e-05, elementwise_affine=True)
          (norm2): LayerNorm((16,), eps=1e-05, elementwise_affine=True)
          (dropout1): Dropout(p=0, inplace=False)
          (dropout2): Dropout(p=0, inplace=False)
        )
      )
    )
  )
  (diagnosis_encoder): Linear(in_features=1, out_features=64, bias=True)
  (bn_diagnosis_encoder): MyBatchNorm1d(64, eps=1e-05, momentum=0.1, affine=True, track_running_stats=True)
  (point_los): Linear(in_features=49, out_features=17, bias=True)
  (point_mort): Linear(in_features=49, out_features=17, bias=True)
  (bn_point_last_los): MyBatchNorm1d(17, eps=1e-05, momentum=0.1, affine=True, track_running_stats=True)
  (bn_point_last_mort): MyBatchNorm1d(17, eps=1e-05, momentum=0.1, affine=True, track_running_stats=True)
  (point_final_los): Linear(in_features=17, out_features=1, bias=True)
  (point_final_mort): Linear(in_features=17, out_features=1, bias=True)
)
2024-04-14 16:40:47,331 - INFO - Custom bins confusion matrix:
2024-04-14 16:40:47,332 - INFO - [[87125 74342 23733  8945  4503  2151  1040   615   758    23]
 [28499 48031 25871 12947  7674  4499  2578  1500  1577    33]
 [10887 26867 18959 11275  7966  5276  3347  2191  2533    63]
 [ 5102 15774 13437  9293  6915  4775  3414  2549  3429    64]
 [ 2820 10299  9363  6738  5793  4670  3332  2455  3986    59]
…
