…
    "temp_kernels": [
        11,
        11,
        11,
        11,
        11,
        11,
        11,
        11
    ]
}
2024-04-13 08:08:40,614 - INFO - Experiment set up.
2024-04-13 08:08:40,733 - INFO - TempPointConv(
  (relu): ReLU()
  (sigmoid): Sigmoid()
  (hardtanh): Hardtanh(min_val=0.020833333333333332, max_val=100)
  (msle_loss): MSLELoss(
    (squared_error): MSELoss()
  )
  (mse_loss): MSELoss(
    (squared_error): MSELoss()
  )
  (bce_loss): BCELoss()
  (main_dropout): Dropout(p=0, inplace=False)
  (temp_dropout): Dropout(p=0.05, inplace=False)
  (empty_module): EmptyModule()
  (diagnosis_encoder): Linear(in_features=1, out_features=64, bias=True)
  (bn_diagnosis_encoder): MyBatchNorm1d(64, eps=1e-05, momentum=0.1, affine=True, track_running_stats=True)
  (bn_point_last_los): MyBatchNorm1d(36, eps=1e-05, momentum=0.1, affine=True, track_running_stats=True)
  (bn_point_last_mort): MyBatchNorm1d(36, eps=1e-05, momentum=0.1, affine=True, track_running_stats=True)
  (point_final_los): Linear(in_features=36, out_features=1, bias=True)
  (point_final_mort): Linear(in_features=36, out_features=1, bias=True)
  (layer_modules): ModuleDict(
    (0): ModuleDict(
      (temp): Conv1d(202, 1111, kernel_size=(5,), stride=(1,), groups=101)
      (bn_temp): MyBatchNorm1d(1111, eps=1e-05, momentum=0.1, affine=True, track_running_stats=True)
      (point): Linear(in_features=237, out_features=5, bias=True)
      (bn_point): MyBatchNorm1d(5, eps=1e-05, momentum=0.1, affine=True, track_running_stats=True)
    )
    (1): ModuleDict(
      (temp): Conv1d(1272, 1166, kernel_size=(5,), stride=(1,), dilation=(4,), groups=106)
      (bn_temp): MyBatchNorm1d(1166, eps=1e-05, momentum=0.1, affine=True, track_running_stats=True)
      (point): Linear(in_features=1353, out_features=5, bias=True)
      (bn_point): MyBatchNorm1d(5, eps=1e-05, momentum=0.1, affine=True, track_running_stats=True)
    )
    (2): ModuleDict(
      (temp): Conv1d(1332, 1221, kernel_size=(5,), stride=(1,), dilation=(8,), groups=111)
      (bn_temp): MyBatchNorm1d(1221, eps=1e-05, momentum=0.1, affine=True, track_running_stats=True)
      (point): Linear(in_features=1408, out_features=5, bias=True)
      (bn_point): MyBatchNorm1d(5, eps=1e-05, momentum=0.1, affine=True, track_running_stats=True)
    )
    (3): ModuleDict(
      (temp): Conv1d(1392, 1276, kernel_size=(5,), stride=(1,), dilation=(12,), groups=116)
      (bn_temp): MyBatchNorm1d(1276, eps=1e-05, momentum=0.1, affine=True, track_running_stats=True)
      (point): Linear(in_features=1463, out_features=5, bias=True)
      (bn_point): MyBatchNorm1d(5, eps=1e-05, momentum=0.1, affine=True, track_running_stats=True)
    )
    (4): ModuleDict(
      (temp): Conv1d(1452, 1331, kernel_size=(5,), stride=(1,), dilation=(16,), groups=121)
      (bn_temp): MyBatchNorm1d(1331, eps=1e-05, momentum=0.1, affine=True, track_running_stats=True)
      (point): Linear(in_features=1518, out_features=5, bias=True)
      (bn_point): MyBatchNorm1d(5, eps=1e-05, momentum=0.1, affine=True, track_running_stats=True)
    )
    (5): ModuleDict(
      (temp): Conv1d(1512, 1386, kernel_size=(5,), stride=(1,), dilation=(20,), groups=126)
      (bn_temp): MyBatchNorm1d(1386, eps=1e-05, momentum=0.1, affine=True, track_running_stats=True)
      (point): Linear(in_features=1573, out_features=5, bias=True)
      (bn_point): MyBatchNorm1d(5, eps=1e-05, momentum=0.1, affine=True, track_running_stats=True)
    )
    (6): ModuleDict(
      (temp): Conv1d(1572, 1441, kernel_size=(5,), stride=(1,), dilation=(24,), groups=131)
      (bn_temp): MyBatchNorm1d(1441, eps=1e-05, momentum=0.1, affine=True, track_running_stats=True)
      (point): Linear(in_features=1628, out_features=5, bias=True)
      (bn_point): MyBatchNorm1d(5, eps=1e-05, momentum=0.1, affine=True, track_running_stats=True)
    )
    (7): ModuleDict(
      (temp): Conv1d(1632, 1496, kernel_size=(5,), stride=(1,), dilation=(28,), groups=136)
      (bn_temp): MyBatchNorm1d(1496, eps=1e-05, momentum=0.1, affine=True, track_running_stats=True)
      (point): Linear(in_features=1683, out_features=5, bias=True)
      (bn_point): MyBatchNorm1d(5, eps=1e-05, momentum=0.1, affine=True, track_running_stats=True)
    )
  )
  (point_last_los): Linear(in_features=1725, out_features=36, bias=True)
  (point_last_mort): Linear(in_features=1725, out_features=36, bias=True)
)
2024-04-13 10:29:15,468 - INFO - Custom bins confusion matrix:
2024-04-13 10:29:15,471 - INFO - [[181577  20014    600    287    222    103     83     75    205     69]
 [  9096  98237  21785   1486    567    446    354    279    783    176]
 [   227   7497  53180  22207   2538    852    690    458   1393    322]
 [    51    445   5762  30750  19468   3300   1208    831   2214    723]
…
