…
    "sum_losses": true,
    "task": "LoS",
    "trans_dropout_rate": 0
}
2024-04-12 14:15:19,868 - INFO - Experiment set up.
2024-04-12 14:15:19,978 - INFO - Transformer(
  (relu): ReLU()
  (sigmoid): Sigmoid()
  (hardtanh): Hardtanh(min_val=0.020833333333333332, max_val=100)
  (trans_dropout): Dropout(p=0, inplace=False)
  (main_dropout): Dropout(p=0.45, inplace=False)
  (msle_loss): MSLELoss(
    (squared_error): MSELoss()
  )
  (mse_loss): MSELoss(
    (squared_error): MSELoss()
  )
  (bce_loss): BCELoss()
  (empty_module): EmptyModule()
  (transformer): TransformerEncoder(
    (input_embedding): Conv1d(204, 16, kernel_size=(1,), stride=(1,))
    (pos_encoder): PositionalEncoding()
    (trans_encoder_layer): TransformerEncoderLayer(
      (self_attn): MultiheadAttention(
        (out_proj): NonDynamicallyQuantizableLinear(in_features=16, out_features=16, bias=True)
      )
      (linear1): Linear(in_features=16, out_features=256, bias=True)
      (dropout): Dropout(p=0, inplace=False)
      (linear2): Linear(in_features=256, out_features=16, bias=True)
      (norm1): LayerNorm((16,), eps=1e-05, elementwise_affine=True)
      (norm2): LayerNorm((16,), eps=1e-05, elementwise_affine=True)
      (dropout1): Dropout(p=0, inplace=False)
      (dropout2): Dropout(p=0, inplace=False)
    )
    (transformer_encoder): TransformerEncoder(
      (layers): ModuleList(
        (0): TransformerEncoderLayer(
          (self_attn): MultiheadAttention(
            (out_proj): NonDynamicallyQuantizableLinear(in_features=16, out_features=16, bias=True)
          )
          (linear1): Linear(in_features=16, out_features=256, bias=True)
          (dropout): Dropout(p=0, inplace=False)
          (linear2): Linear(in_features=256, out_features=16, bias=True)
          (norm1): LayerNorm((16,), eps=1e-05, elementwise_affine=True)
          (norm2): LayerNorm((16,), eps=1e-05, elementwise_affine=True)
          (dropout1): Dropout(p=0, inplace=False)
          (dropout2): Dropout(p=0, inplace=False)
        )
        (1): TransformerEncoderLayer(
          (self_attn): MultiheadAttention(
            (out_proj): NonDynamicallyQuantizableLinear(in_features=16, out_features=16, bias=True)
          )
          (linear1): Linear(in_features=16, out_features=256, bias=True)
          (dropout): Dropout(p=0, inplace=False)
          (linear2): Linear(in_features=256, out_features=16, bias=True)
          (norm1): LayerNorm((16,), eps=1e-05, elementwise_affine=True)
          (norm2): LayerNorm((16,), eps=1e-05, elementwise_affine=True)
          (dropout1): Dropout(p=0, inplace=False)
          (dropout2): Dropout(p=0, inplace=False)
        )
        (2): TransformerEncoderLayer(
          (self_attn): MultiheadAttention(
            (out_proj): NonDynamicallyQuantizableLinear(in_features=16, out_features=16, bias=True)
          )
          (linear1): Linear(in_features=16, out_features=256, bias=True)
          (dropout): Dropout(p=0, inplace=False)
          (linear2): Linear(in_features=256, out_features=16, bias=True)
          (norm1): LayerNorm((16,), eps=1e-05, elementwise_affine=True)
          (norm2): LayerNorm((16,), eps=1e-05, elementwise_affine=True)
          (dropout1): Dropout(p=0, inplace=False)
          (dropout2): Dropout(p=0, inplace=False)
        )
        (3): TransformerEncoderLayer(
          (self_attn): MultiheadAttention(
            (out_proj): NonDynamicallyQuantizableLinear(in_features=16, out_features=16, bias=True)
          )
          (linear1): Linear(in_features=16, out_features=256, bias=True)
          (dropout): Dropout(p=0, inplace=False)
          (linear2): Linear(in_features=256, out_features=16, bias=True)
          (norm1): LayerNorm((16,), eps=1e-05, elementwise_affine=True)
          (norm2): LayerNorm((16,), eps=1e-05, elementwise_affine=True)
          (dropout1): Dropout(p=0, inplace=False)
          (dropout2): Dropout(p=0, inplace=False)
        )
        (4): TransformerEncoderLayer(
          (self_attn): MultiheadAttention(
            (out_proj): NonDynamicallyQuantizableLinear(in_features=16, out_features=16, bias=True)
          )
          (linear1): Linear(in_features=16, out_features=256, bias=True)
          (dropout): Dropout(p=0, inplace=False)
          (linear2): Linear(in_features=256, out_features=16, bias=True)
          (norm1): LayerNorm((16,), eps=1e-05, elementwise_affine=True)
          (norm2): LayerNorm((16,), eps=1e-05, elementwise_affine=True)
          (dropout1): Dropout(p=0, inplace=False)
          (dropout2): Dropout(p=0, inplace=False)
        )
        (5): TransformerEncoderLayer(
          (self_attn): MultiheadAttention(
            (out_proj): NonDynamicallyQuantizableLinear(in_features=16, out_features=16, bias=True)
          )
          (linear1): Linear(in_features=16, out_features=256, bias=True)
          (dropout): Dropout(p=0, inplace=False)
          (linear2): Linear(in_features=256, out_features=16, bias=True)
          (norm1): LayerNorm((16,), eps=1e-05, elementwise_affine=True)
          (norm2): LayerNorm((16,), eps=1e-05, elementwise_affine=True)
          (dropout1): Dropout(p=0, inplace=False)
          (dropout2): Dropout(p=0, inplace=False)
        )
      )
    )
  )
  (diagnosis_encoder): Linear(in_features=1, out_features=64, bias=True)
  (bn_diagnosis_encoder): MyBatchNorm1d(64, eps=1e-05, momentum=0.1, affine=True, track_running_stats=True)
  (point_los): Linear(in_features=49, out_features=17, bias=True)
  (point_mort): Linear(in_features=49, out_features=17, bias=True)
  (bn_point_last_los): MyBatchNorm1d(17, eps=1e-05, momentum=0.1, affine=True, track_running_stats=True)
  (bn_point_last_mort): MyBatchNorm1d(17, eps=1e-05, momentum=0.1, affine=True, track_running_stats=True)
  (point_final_los): Linear(in_features=17, out_features=1, bias=True)
  (point_final_mort): Linear(in_features=17, out_features=1, bias=True)
)
2024-04-12 14:28:12,730 - INFO - Custom bins confusion matrix:
2024-04-12 14:28:12,730 - INFO - [[289437 469639 105868  42528  21821  12659   7771   5177  10626   3032]
 [134209 286093  91337  44358  24929  15193  10054   6835  14424   4151]
 [ 67770 172015  69097  36777  22197  14187   9332   6429  14442   4167]
 [ 38684 113192  52167  30364  19047  12471   8305   6128  13549   3876]
…
